2021-09-28 17:12:45,963 - test - INFO - VideoModel(
  (model): Net(
    (blocks): ModuleList(
      (0): ResNetBasicStem(
        (conv): Conv3d(3, 64, kernel_size=(1, 7, 7), stride=(1, 2, 2), padding=[0, 3, 3], bias=False)
        (norm): BatchNorm3d(64, eps=1e-05, momentum=0.1, affine=True, track_running_stats=True)
        (activation): ReLU()
        (pool): MaxPool3d(kernel_size=(1, 3, 3), stride=(1, 2, 2), padding=[0, 1, 1], dilation=1, ceil_mode=False)
      )
      (1): ResStage(
        (res_blocks): ModuleList(
          (0): ResBlock(
            (branch1_conv): Conv3d(64, 256, kernel_size=(1, 1, 1), stride=(1, 1, 1), bias=False)
            (branch1_norm): BatchNorm3d(256, eps=1e-05, momentum=0.1, affine=True, track_running_stats=True)
            (branch2): BottleneckBlock(
              (conv_a): Conv3d(64, 64, kernel_size=(1, 1, 1), stride=(1, 1, 1), padding=[0, 0, 0], bias=False)
              (norm_a): BatchNorm3d(64, eps=1e-05, momentum=0.1, affine=True, track_running_stats=True)
              (act_a): ReLU()
              (conv_b): Conv3d(64, 64, kernel_size=(1, 3, 3), stride=(1, 1, 1), padding=[0, 1, 1], bias=False)
              (norm_b): BatchNorm3d(64, eps=1e-05, momentum=0.1, affine=True, track_running_stats=True)
              (act_b): ReLU()
              (conv_c): Conv3d(64, 256, kernel_size=(1, 1, 1), stride=(1, 1, 1), bias=False)
              (norm_c): BatchNorm3d(256, eps=1e-05, momentum=0.1, affine=True, track_running_stats=True)
            )
            (activation): ReLU()
          )
          (1): ResBlock(
            (branch2): BottleneckBlock(
              (conv_a): Conv3d(256, 64, kernel_size=(1, 1, 1), stride=(1, 1, 1), padding=[0, 0, 0], bias=False)
              (norm_a): BatchNorm3d(64, eps=1e-05, momentum=0.1, affine=True, track_running_stats=True)
              (act_a): ReLU()
              (conv_b): Conv3d(64, 64, kernel_size=(1, 3, 3), stride=(1, 1, 1), padding=[0, 1, 1], bias=False)
              (norm_b): BatchNorm3d(64, eps=1e-05, momentum=0.1, affine=True, track_running_stats=True)
              (act_b): ReLU()
              (conv_c): Conv3d(64, 256, kernel_size=(1, 1, 1), stride=(1, 1, 1), bias=False)
              (norm_c): BatchNorm3d(256, eps=1e-05, momentum=0.1, affine=True, track_running_stats=True)
            )
            (activation): ReLU()
          )
          (2): ResBlock(
            (branch2): BottleneckBlock(
              (conv_a): Conv3d(256, 64, kernel_size=(1, 1, 1), stride=(1, 1, 1), padding=[0, 0, 0], bias=False)
              (norm_a): BatchNorm3d(64, eps=1e-05, momentum=0.1, affine=True, track_running_stats=True)
              (act_a): ReLU()
              (conv_b): Conv3d(64, 64, kernel_size=(1, 3, 3), stride=(1, 1, 1), padding=[0, 1, 1], bias=False)
              (norm_b): BatchNorm3d(64, eps=1e-05, momentum=0.1, affine=True, track_running_stats=True)
              (act_b): ReLU()
              (conv_c): Conv3d(64, 256, kernel_size=(1, 1, 1), stride=(1, 1, 1), bias=False)
              (norm_c): BatchNorm3d(256, eps=1e-05, momentum=0.1, affine=True, track_running_stats=True)
            )
            (activation): ReLU()
          )
        )
      )
      (2): ResStage(
        (res_blocks): ModuleList(
          (0): ResBlock(
            (branch1_conv): Conv3d(256, 512, kernel_size=(1, 1, 1), stride=(1, 2, 2), bias=False)
            (branch1_norm): BatchNorm3d(512, eps=1e-05, momentum=0.1, affine=True, track_running_stats=True)
            (branch2): BottleneckBlock(
              (conv_a): Conv3d(256, 128, kernel_size=(1, 1, 1), stride=(1, 1, 1), padding=[0, 0, 0], bias=False)
              (norm_a): BatchNorm3d(128, eps=1e-05, momentum=0.1, affine=True, track_running_stats=True)
              (act_a): ReLU()
              (conv_b): Conv3d(128, 128, kernel_size=(1, 3, 3), stride=(1, 2, 2), padding=[0, 1, 1], bias=False)
              (norm_b): BatchNorm3d(128, eps=1e-05, momentum=0.1, affine=True, track_running_stats=True)
              (act_b): ReLU()
              (conv_c): Conv3d(128, 512, kernel_size=(1, 1, 1), stride=(1, 1, 1), bias=False)
              (norm_c): BatchNorm3d(512, eps=1e-05, momentum=0.1, affine=True, track_running_stats=True)
            )
            (activation): ReLU()
          )
          (1): ResBlock(
            (branch2): BottleneckBlock(
              (conv_a): Conv3d(512, 128, kernel_size=(1, 1, 1), stride=(1, 1, 1), padding=[0, 0, 0], bias=False)
              (norm_a): BatchNorm3d(128, eps=1e-05, momentum=0.1, affine=True, track_running_stats=True)
              (act_a): ReLU()
              (conv_b): Conv3d(128, 128, kernel_size=(1, 3, 3), stride=(1, 1, 1), padding=[0, 1, 1], bias=False)
              (norm_b): BatchNorm3d(128, eps=1e-05, momentum=0.1, affine=True, track_running_stats=True)
              (act_b): ReLU()
              (conv_c): Conv3d(128, 512, kernel_size=(1, 1, 1), stride=(1, 1, 1), bias=False)
              (norm_c): BatchNorm3d(512, eps=1e-05, momentum=0.1, affine=True, track_running_stats=True)
            )
            (activation): ReLU()
          )
          (2): ResBlock(
            (branch2): BottleneckBlock(
              (conv_a): Conv3d(512, 128, kernel_size=(1, 1, 1), stride=(1, 1, 1), padding=[0, 0, 0], bias=False)
              (norm_a): BatchNorm3d(128, eps=1e-05, momentum=0.1, affine=True, track_running_stats=True)
              (act_a): ReLU()
              (conv_b): Conv3d(128, 128, kernel_size=(1, 3, 3), stride=(1, 1, 1), padding=[0, 1, 1], bias=False)
              (norm_b): BatchNorm3d(128, eps=1e-05, momentum=0.1, affine=True, track_running_stats=True)
              (act_b): ReLU()
              (conv_c): Conv3d(128, 512, kernel_size=(1, 1, 1), stride=(1, 1, 1), bias=False)
              (norm_c): BatchNorm3d(512, eps=1e-05, momentum=0.1, affine=True, track_running_stats=True)
            )
            (activation): ReLU()
          )
          (3): ResBlock(
            (branch2): BottleneckBlock(
              (conv_a): Conv3d(512, 128, kernel_size=(1, 1, 1), stride=(1, 1, 1), padding=[0, 0, 0], bias=False)
              (norm_a): BatchNorm3d(128, eps=1e-05, momentum=0.1, affine=True, track_running_stats=True)
              (act_a): ReLU()
              (conv_b): Conv3d(128, 128, kernel_size=(1, 3, 3), stride=(1, 1, 1), padding=[0, 1, 1], bias=False)
              (norm_b): BatchNorm3d(128, eps=1e-05, momentum=0.1, affine=True, track_running_stats=True)
              (act_b): ReLU()
              (conv_c): Conv3d(128, 512, kernel_size=(1, 1, 1), stride=(1, 1, 1), bias=False)
              (norm_c): BatchNorm3d(512, eps=1e-05, momentum=0.1, affine=True, track_running_stats=True)
            )
            (activation): ReLU()
          )
        )
      )
      (3): ResStage(
        (res_blocks): ModuleList(
          (0): ResBlock(
            (branch1_conv): Conv3d(512, 1024, kernel_size=(1, 1, 1), stride=(1, 2, 2), bias=False)
            (branch1_norm): BatchNorm3d(1024, eps=1e-05, momentum=0.1, affine=True, track_running_stats=True)
            (branch2): BottleneckBlock(
              (conv_a): Conv3d(512, 256, kernel_size=(3, 1, 1), stride=(1, 1, 1), padding=[1, 0, 0], bias=False)
              (norm_a): BatchNorm3d(256, eps=1e-05, momentum=0.1, affine=True, track_running_stats=True)
              (act_a): ReLU()
              (conv_b): Conv3d(256, 256, kernel_size=(1, 3, 3), stride=(1, 2, 2), padding=[0, 1, 1], bias=False)
              (norm_b): BatchNorm3d(256, eps=1e-05, momentum=0.1, affine=True, track_running_stats=True)
              (act_b): ReLU()
              (conv_c): Conv3d(256, 1024, kernel_size=(1, 1, 1), stride=(1, 1, 1), bias=False)
              (norm_c): BatchNorm3d(1024, eps=1e-05, momentum=0.1, affine=True, track_running_stats=True)
            )
            (activation): ReLU()
          )
          (1): ResBlock(
            (branch2): BottleneckBlock(
              (conv_a): Conv3d(1024, 256, kernel_size=(3, 1, 1), stride=(1, 1, 1), padding=[1, 0, 0], bias=False)
              (norm_a): BatchNorm3d(256, eps=1e-05, momentum=0.1, affine=True, track_running_stats=True)
              (act_a): ReLU()
              (conv_b): Conv3d(256, 256, kernel_size=(1, 3, 3), stride=(1, 1, 1), padding=[0, 1, 1], bias=False)
              (norm_b): BatchNorm3d(256, eps=1e-05, momentum=0.1, affine=True, track_running_stats=True)
              (act_b): ReLU()
              (conv_c): Conv3d(256, 1024, kernel_size=(1, 1, 1), stride=(1, 1, 1), bias=False)
              (norm_c): BatchNorm3d(1024, eps=1e-05, momentum=0.1, affine=True, track_running_stats=True)
            )
            (activation): ReLU()
          )
          (2): ResBlock(
            (branch2): BottleneckBlock(
              (conv_a): Conv3d(1024, 256, kernel_size=(3, 1, 1), stride=(1, 1, 1), padding=[1, 0, 0], bias=False)
              (norm_a): BatchNorm3d(256, eps=1e-05, momentum=0.1, affine=True, track_running_stats=True)
              (act_a): ReLU()
              (conv_b): Conv3d(256, 256, kernel_size=(1, 3, 3), stride=(1, 1, 1), padding=[0, 1, 1], bias=False)
              (norm_b): BatchNorm3d(256, eps=1e-05, momentum=0.1, affine=True, track_running_stats=True)
              (act_b): ReLU()
              (conv_c): Conv3d(256, 1024, kernel_size=(1, 1, 1), stride=(1, 1, 1), bias=False)
              (norm_c): BatchNorm3d(1024, eps=1e-05, momentum=0.1, affine=True, track_running_stats=True)
            )
            (activation): ReLU()
          )
          (3): ResBlock(
            (branch2): BottleneckBlock(
              (conv_a): Conv3d(1024, 256, kernel_size=(3, 1, 1), stride=(1, 1, 1), padding=[1, 0, 0], bias=False)
              (norm_a): BatchNorm3d(256, eps=1e-05, momentum=0.1, affine=True, track_running_stats=True)
              (act_a): ReLU()
              (conv_b): Conv3d(256, 256, kernel_size=(1, 3, 3), stride=(1, 1, 1), padding=[0, 1, 1], bias=False)
              (norm_b): BatchNorm3d(256, eps=1e-05, momentum=0.1, affine=True, track_running_stats=True)
              (act_b): ReLU()
              (conv_c): Conv3d(256, 1024, kernel_size=(1, 1, 1), stride=(1, 1, 1), bias=False)
              (norm_c): BatchNorm3d(1024, eps=1e-05, momentum=0.1, affine=True, track_running_stats=True)
            )
            (activation): ReLU()
          )
          (4): ResBlock(
            (branch2): BottleneckBlock(
              (conv_a): Conv3d(1024, 256, kernel_size=(3, 1, 1), stride=(1, 1, 1), padding=[1, 0, 0], bias=False)
              (norm_a): BatchNorm3d(256, eps=1e-05, momentum=0.1, affine=True, track_running_stats=True)
              (act_a): ReLU()
              (conv_b): Conv3d(256, 256, kernel_size=(1, 3, 3), stride=(1, 1, 1), padding=[0, 1, 1], bias=False)
              (norm_b): BatchNorm3d(256, eps=1e-05, momentum=0.1, affine=True, track_running_stats=True)
              (act_b): ReLU()
              (conv_c): Conv3d(256, 1024, kernel_size=(1, 1, 1), stride=(1, 1, 1), bias=False)
              (norm_c): BatchNorm3d(1024, eps=1e-05, momentum=0.1, affine=True, track_running_stats=True)
            )
            (activation): ReLU()
          )
          (5): ResBlock(
            (branch2): BottleneckBlock(
              (conv_a): Conv3d(1024, 256, kernel_size=(3, 1, 1), stride=(1, 1, 1), padding=[1, 0, 0], bias=False)
              (norm_a): BatchNorm3d(256, eps=1e-05, momentum=0.1, affine=True, track_running_stats=True)
              (act_a): ReLU()
              (conv_b): Conv3d(256, 256, kernel_size=(1, 3, 3), stride=(1, 1, 1), padding=[0, 1, 1], bias=False)
              (norm_b): BatchNorm3d(256, eps=1e-05, momentum=0.1, affine=True, track_running_stats=True)
              (act_b): ReLU()
              (conv_c): Conv3d(256, 1024, kernel_size=(1, 1, 1), stride=(1, 1, 1), bias=False)
              (norm_c): BatchNorm3d(1024, eps=1e-05, momentum=0.1, affine=True, track_running_stats=True)
            )
            (activation): ReLU()
          )
        )
      )
      (4): ResStage(
        (res_blocks): ModuleList(
          (0): ResBlock(
            (branch1_conv): Conv3d(1024, 2048, kernel_size=(1, 1, 1), stride=(1, 2, 2), bias=False)
            (branch1_norm): BatchNorm3d(2048, eps=1e-05, momentum=0.1, affine=True, track_running_stats=True)
            (branch2): BottleneckBlock(
              (conv_a): Conv3d(1024, 512, kernel_size=(3, 1, 1), stride=(1, 1, 1), padding=[1, 0, 0], bias=False)
              (norm_a): BatchNorm3d(512, eps=1e-05, momentum=0.1, affine=True, track_running_stats=True)
              (act_a): ReLU()
              (conv_b): Conv3d(512, 512, kernel_size=(1, 3, 3), stride=(1, 2, 2), padding=[0, 1, 1], bias=False)
              (norm_b): BatchNorm3d(512, eps=1e-05, momentum=0.1, affine=True, track_running_stats=True)
              (act_b): ReLU()
              (conv_c): Conv3d(512, 2048, kernel_size=(1, 1, 1), stride=(1, 1, 1), bias=False)
              (norm_c): BatchNorm3d(2048, eps=1e-05, momentum=0.1, affine=True, track_running_stats=True)
            )
            (activation): ReLU()
          )
          (1): ResBlock(
            (branch2): BottleneckBlock(
              (conv_a): Conv3d(2048, 512, kernel_size=(3, 1, 1), stride=(1, 1, 1), padding=[1, 0, 0], bias=False)
              (norm_a): BatchNorm3d(512, eps=1e-05, momentum=0.1, affine=True, track_running_stats=True)
              (act_a): ReLU()
              (conv_b): Conv3d(512, 512, kernel_size=(1, 3, 3), stride=(1, 1, 1), padding=[0, 1, 1], bias=False)
              (norm_b): BatchNorm3d(512, eps=1e-05, momentum=0.1, affine=True, track_running_stats=True)
              (act_b): ReLU()
              (conv_c): Conv3d(512, 2048, kernel_size=(1, 1, 1), stride=(1, 1, 1), bias=False)
              (norm_c): BatchNorm3d(2048, eps=1e-05, momentum=0.1, affine=True, track_running_stats=True)
            )
            (activation): ReLU()
          )
          (2): ResBlock(
            (branch2): BottleneckBlock(
              (conv_a): Conv3d(2048, 512, kernel_size=(3, 1, 1), stride=(1, 1, 1), padding=[1, 0, 0], bias=False)
              (norm_a): BatchNorm3d(512, eps=1e-05, momentum=0.1, affine=True, track_running_stats=True)
              (act_a): ReLU()
              (conv_b): Conv3d(512, 512, kernel_size=(1, 3, 3), stride=(1, 1, 1), padding=[0, 1, 1], bias=False)
              (norm_b): BatchNorm3d(512, eps=1e-05, momentum=0.1, affine=True, track_running_stats=True)
              (act_b): ReLU()
              (conv_c): Conv3d(512, 2048, kernel_size=(1, 1, 1), stride=(1, 1, 1), bias=False)
              (norm_c): BatchNorm3d(2048, eps=1e-05, momentum=0.1, affine=True, track_running_stats=True)
            )
            (activation): ReLU()
          )
        )
      )
      (5): ResNetBasicHead(
        (pool): AvgPool3d(kernel_size=(8, 7, 7), stride=(1, 1, 1), padding=(0, 0, 0))
        (dropout): Dropout(p=0.5, inplace=False)
        (proj): Linear(in_features=2048, out_features=400, bias=True)
        (output_pool): AdaptiveAvgPool3d(output_size=1)
      )
    )
  )
  (classifier_layer): Sequential(
    (0): Linear(in_features=400, out_features=256, bias=True)
    (1): ReLU(inplace=True)
    (2): Dropout(p=0.5, inplace=False)
    (3): Linear(in_features=256, out_features=7, bias=True)
  )
)
Trainable parameters: 4337047
2021-09-28 17:12:45,969 - test - INFO - Loading checkpoint: results/slow_r50/0921_233110/models/model_best.pth ...
2021-09-28 17:15:53,931 - test - INFO - {'loss': 1.4655795849007798, 'accuracy': 0.44150693985459355, 'top_k_acc': 0.6556510244547257, 'conf mat': tensor([[174.,  19.,  29.,  21.,  36.,   6.,  46.],
        [ 20.,  49.,  17.,   5.,  14.,   3.,  12.],
…
